model_checkpoints/model.pt (torch, 421959 bytes, 10 tensors)

structural_attn.structural_layer_0.att_l f4 [1, 16, 8]
000000 ed 56 ef bb 04 32 ea bc aa fb 8f bc 9e c9 9a 3b
       -0.0073040635 -0.028588302 -0.017576057 0.0047237417
000010 eb 81 84 3c 15 b1 2c 3c 17 0b 8b 3c f0 58 a3 bc
       0.016175231 0.0105402665 0.016973061 -0.01993987
000020 43 e9 a1 bb 6a 07 6c bc 39 13 79 3a 17 a7 5a 3b
       -0.004941137 -0.0144060645 0.00095014606 0.0033363753
000030 af bb 7f bb 3f a5 16 bd c8 18 68 3a 2b 6f d3 bb
       -0.003902178 -0.036778685 0.00088537904 -0.0064524612
000040 3f 50 16 bd a2 d7 0f bd 76 b8 b7 bc 81 0d 20 3c
       -0.036697622 -0.035117753 -0.022426825 0.009768845
000050 35 03 d3 bc 87 fd 0c 3c 6d ac 92 3c 54 db eb 3c
       -0.025758365 0.0086053675 0.017904485 0.028791107
000060 ba dc f6 bc 28 8f d3 bc f1 e1 64 3d f4 8e ef 3c
       -0.030134548 -0.025825098 0.055879537 0.02924297
000070 37 d4 5e bd 54 bd 49 3d 95 36 51 bd da 95 44 bd
       -0.054401603 0.049252823 -0.051077444 -0.047994472
000080 fa 98 94 3c b1 5c b8 3a ef b3 f7 3c 89 47 9d 3a
       0.018139351 0.001406571 0.030237166 0.0011999469
000090 4c 57 ea 3a 80 7a 50 bb ed ad 99 3c 7a 4f 8a bc
       0.00178788 -0.0031811297 0.018759692 -0.0168836
0000a0 9d 1b 4f bc 88 de 2b 3b a7 fb 1b 3b a0 9d 46 bb
       -0.012640861 0.0026225168 0.002380112 -0.0030306354
0000b0 7a e9 ed bc 25 cd a8 bc dd e1 1e bd 2e f1 81 3c
       -0.029041994 -0.020605633 -0.03878962 0.015862074
0000c0 20 f3 dd 3c e1 70 f4 bc 08 c1 0b 3d 6e ac 55 bd
       0.02709347 -0.029838981 0.034119636 -0.052166395
0000d0 3f bc f4 bc 9c ba 9e bc 79 4f 4e bd e0 4e 2a 3c
       -0.029874919 -0.019376092 -0.05036876 0.010394782
0000e0 3a 0e c9 3c 4d 1e 59 3d ea 9c 75 bb a2 d4 1d 3a
       0.024542917 0.053007413 -0.0037477561 0.00060207595
0000f0 38 5a 38 3d 6b 8c db 3c 7c 50 e4 bc 38 b3 55 3c
       0.045007914 0.026800355 -0.02787041 0.013043217
000100 6e 6c fd bc 83 c7 b7 bc 3b a5 ff bc dc f0 02 bd
       -0.030935492 -0.022434002 -0.031206718 -0.031967983
000110 e6 7e 98 bc a9 f1 c3 3b 46 51 fd bb 69 2f 42 3b
       -0.018615197 0.005979736 -0.007730636 0.002963031
000120 06 83 e4 bc 80 67 57 bc 29 61 dd 3c e1 e5 ad bb
       -0.027894508 -0.013147235 0.027023869 -0.0053069447
000130 e9 0e 21 3d e7 af 0c 3c 69 b9 80 3c 76 5d 21 bc
       0.03932086 0.00858686 0.01571341 -0.009848943
000140 f9 af 34 bd 64 21 0e bc dc df 1e bd 8e 6b 5f bc
       -0.044113133 -0.008674953 -0.038787708 -0.013636483
000150 0c e7 8d 3b 17 d8 45 3d c3 be 69 3c 1f a4 91 bc
       0.0043305214 0.048301782 0.014266673 -0.017778454
000160 e7 ab b7 b9 92 d0 7b bc ca 72 87 ba 3d fe 75 bb
       -0.00035032557 -0.015369551 -0.0010333892 -0.003753557
000170 c4 e2 c0 bc 38 5f 04 bd 6b 49 b0 bb 80 2a 81 3c
       -0.02354563 -0.03231737 -0.005379846 0.015767336
000180 6d e6 fb bc 14 09 07 3c 55 e5 de bc 01 ff fa 3b
       -0.030749524 0.0082419105 -0.027208963 0.0076597934
000190 69 be b2 bb 79 54 11 3d df 66 87 3c 38 7b 86 bc
       -0.0054548276 0.03548095 0.016528545 -0.016416177
0001a0 e4 3e 04 bd 80 9f c4 3c 3b c1 c8 3c 55 23 97 3c
       -0.03228654 0.024001837 0.024506202 0.018449465
0001b0 b4 37 2f 3c 50 2e 27 3d c7 44 21 3d 7f 9d 25 ba
       0.010694433 0.04081565 0.03937223 -0.0006317719
0001c0 fe 62 5f 3c 21 10 91 bc 53 32 8c bc 66 72 b4 bc
       0.013634441 -0.017707886 -0.01711384 -0.022027206
0001d0 b8 3e 96 bc 8c 75 31 3c 3c 86 3e bc b3 7f b0 3c
       -0.018340454 0.010831248 -0.011628684 0.021545267
0001e0 9a 1e d9 3b 17 46 f7 bc 87 58 a0 bb 27 16 13 bc
       0.0066259624 -0.030184789 -0.004893366 -0.0089774495
0001f0 a2 5f 99 bc b9 c9 59 bb f8 e1 35 bc a6 4f 5c 3c
       -0.01872236 -0.0033231808 -0.011101238 0.013446724

structural_attn.structural_layer_0.att_r f4 [1, 16, 8]
000000 2f a6 5c 3c 3b 1e 90 bb 6f 40 42 3c 1d 16 5c 3d
       0.013467356 -0.004398135 0.0118561825 0.053732026
000010 ac 7f 31 ba 20 94 df 3a d6 02 44 bd 37 10 39 bd
       -0.0006771039 0.0017057694 -0.047854267 -0.04518148
000020 da 75 25 bc 9e 67 c8 3c ff 47 b1 3b cc 8b 51 3c
       -0.010098899 0.024463471 0.005410194 0.012789678
000030 1c 78 8e bb 98 59 55 bd 50 de 1d bb c2 87 31 3d
       -0.0043478142 -0.052087396 -0.0024088807 0.04334236
000040 7c 38 b2 b9 16 a2 89 3c e0 85 44 3c fe 11 59 3d
       -0.0003399289 0.016800921 0.011994809 0.052995674
000050 d6 d5 84 bc bb 18 a2 b7 10 d8 1b 3d 42 93 30 3d
       -0.016215246 -1.9323421e-05 0.03804785 0.043109186
000060 e7 7a 4c 3d 20 ac 6e 3d 07 00 5e bd a3 97 40 bc
       0.049921896 0.05826962 -0.054199245 -0.011754903
000070 d4 7c e7 bc 89 c3 2c bd fe 71 b5 3c e4 93 5a 3d
       -0.028257765 -0.042178664 0.022149082 0.053363696
000080 f5 d7 fb bc 88 21 b4 3c bd a5 9e 3b fd e5 09 3b
       -0.030742625 0.021988645 0.004841535 0.0021041625
000090 67 d4 8f bb 4f cc 01 bd 55 23 46 ba 97 f9 a1 bc
       -0.004389334 -0.031688984 -0.00075583655 -0.019772334
0000a0 ab 5b bf bc 04 f5 6c bc 8f b6 1f 3c ba 91 28 3b
       -0.02335914 -0.014462713 0.009748115 0.0025721625
0000b0 cc 79 85 3b 9e a9 35 3c 56 7f 93 3b 0f 12 86 3c
       0.004073357 0.011087803 0.0045012636 0.016366033
0000c0 79 01 4e bd 5d fc 4e bd e4 0f c2 bc cc 40 41 3d
       -0.050294373 -0.05053364 -0.023689218 0.047180936
0000d0 57 38 1b 3c 3e a4 5d bd c2 58 3e 3d c3 14 24 3d
       0.009473882 -0.05411171 0.046471365 0.040058862
0000e0 47 7f 2d bd b3 eb bc 3b 46 42 8e 3c 3b c1 f9 3c
       -0.04235771 0.005765402 0.017365586 0.030487647
0000f0 0c 49 18 bd c2 04 9c bc 13 8b 54 bd a1 5f 58 3c
       -0.037179038 -0.019045237 -0.051890444 0.013206393
000100 36 7a ea 3b 20 b3 02 3d d3 e6 92 bc 94 80 d1 3c
       0.007155682 0.03190911 -0.017932331 0.025574006
000110 2c 08 f5 3b ae ac b5 bc 85 e4 63 bd cb fe 31 3c
       0.007477781 -0.022177067 -0.055637855 0.01086397
000120 ee b5 5a bd 9a d0 81 3c 63 98 17 bd fa c5 58 3c
       -0.053396158 0.01584654 -0.03701056 0.013230795
000130 d1 2f d2 bc c3 7e 23 3d d9 04 de ba 23 9f 5e 3d
       -0.025657566 0.03991581 -0.00169387 0.054350983
000140 69 fb d8 3b 11 4e e7 b9 5c e0 f6 3a f7 c4 70 3c
       0.0066217673 -0.00044117917 0.0018835175 0.014695398
000150 a5 fa e8 bc 2a de 56 3c 2b aa 2d bc 30 78 b0 bc
       -0.02843983 0.0131144915 -0.010599653 -0.021541685
000160 0b 7c 28 3d 60 19 59 3c 65 69 e1 3c d7 29 49 3c
       0.04113392 0.013250679 0.027516076 0.012278042
000170 7a d1 ab 3c 43 7c 92 bb f7 ce 56 3a b4 44 63 bc
       0.02097391 -0.0044703796 0.00081942923 -0.013871361
000180 45 70 c4 3c ae 32 4b 3c d6 d5 26 3d 31 78 0d bd
       0.023979316 0.01240222 0.040731274 -0.03453845
000190 ae c9 32 3d 00 eb ab bc e3 6c 1e bd e4 c2 88 3c
       0.043649368 -0.02098608 -0.03867806 0.016694494
0001a0 9e d6 f3 bc 23 e8 50 bd 61 a2 a7 bc 73 61 df bc
       -0.029765423 -0.051002633 -0.02046317 -0.027268147
0001b0 ab b6 05 bc 77 de 92 bc d5 d5 01 bd 0b 0e 80 3c
       -0.008161227 -0.017928345 -0.031698067 0.015631696
0001c0 0d a7 9e 3c 67 37 27 3d 53 8c 98 3c c1 16 06 bb
       0.019366765 0.04082432 0.0186216 -0.002046034
0001d0 07 20 b6 3b ae ad 77 bc 4c 99 19 bd d0 f6 a8 ba
       0.005558017 -0.015117092 -0.03749971 -0.0012890939
0001e0 70 c9 de 3c 20 8a 48 bc de 4a 6a 3d 54 f2 34 bd
       0.027195662 -0.012239963 0.057200305 -0.044176415
0001f0 a9 63 57 bc 0a 10 f7 39 98 33 49 3d 0c 52 2c bd
       -0.013146319 0.0004712346 0.04912147 -0.042070433

structural_attn.structural_layer_0.lin.weight f4 [128, 143]
000000 88 ff 89 bd 6f e4 fa 3c 47 fe a1 bd 5b 83 21 bd
       -0.06738192 0.030626504 -0.07909828 -0.03943191
000010 2e 91 f0 bc 6d 7c 38 bd 7a cb 8d bd 8d ad b0 bd
       -0.029366102 -0.045040537 -0.06923576 -0.08626852
000020 34 6f bf bd 4c 1c 77 bd bf 0e cf bd 52 07 97 bd
       -0.09347382 -0.06032972 -0.101102345 -0.07374443
000030 1d 98 03 bd a8 1a 9c 3c 09 8c 7c 3d af ad 38 3d
       -0.03212749 0.01905568 0.061656985 0.045087513
000040 7f 89 c8 3c 0f 35 e0 bc 23 96 81 ba 23 05 40 3d
       0.024479626 -0.02736905 -0.0009886663 0.0468799
000050 00 57 8d 3d c3 ea 8b bd 88 cd 5a bd e0 c5 2e bd
       0.069013596 -0.068318866 -0.053418666 -0.042669177
000060 82 b4 dc 3d ed 0a 8f 3d dd 9d df bc ae f2 78 bc
       0.10776617 0.06984506 -0.027296955 -0.015194578
000070 e8 df 13 3d 0e 58 d5 39 bc d0 29 3d b3 c7 84 3c
       0.036102206 0.00040692132 0.04145883 0.016208505
000080 86 cb fb 3c 9d a9 2d bd eb 2f 96 3c d8 f2 75 bc
       0.030736696 -0.042398084 0.018333396 -0.015011512
000090 50 78 82 3b e7 5d 83 3c 51 c4 c8 3d f7 5a 1c 3d
       0.0039816275 0.016035987 0.098030694 0.03817269
0000a0 38 04 fa bc 00 a4 41 3d 79 43 84 3b bb f2 13 3d
       -0.03051959 0.047275543 0.0040363637 0.036120158
0000b0 b1 36 29 bc 10 42 de 3d 99 60 bc bc e3 d6 2b 3d
       -0.010327981 0.10852444 -0.02299528 0.04195298
0000c0 34 af a2 bc f2 e1 30 bd b6 3c 14 3d c0 e7 b0 bd
       -0.019858934 -0.04318423 0.03619071 -0.08637953
0000d0 e2 f3 3b 3d c9 e2 37 3d 1d b2 c2 3d 64 68 80 3d
       0.04588688 0.044894014 0.09506629 0.06269911
0000e0 0d 10 84 3d 62 27 a3 3d 97 bc d7 3d bb 35 52 bd
       0.06448374 0.07966496 0.105340175 -0.051320773
0000f0 a9 98 b7 bc aa d0 73 bc a7 05 95 3d d3 a1 01 3d
       -0.022411661 -0.014881292 0.07276469 0.03164847
000100 b8 3a 86 3c 00 29 fb bb 5a aa 4c bd 6f 0e 1f bd
       0.016385421 -0.0076647997 -0.049967147 -0.038832124
000110 37 0c 02 3d 99 63 e6 3d 94 18 c2 3c 52 10 e0 bc
       0.03174993 0.112494655 0.02369336 -0.027351532
000120 9f 59 50 3d 48 54 e6 3b 6f 65 51 3d 6a ca d7 3d
       0.05086672 0.00702909 0.051122125 0.10536654
000130 ba 2b 27 3d af d6 e0 bc f1 3c f6 3c 3f 3f 98 3b
       0.040813185 -0.02744612 0.030058356 0.0046462114
000140 46 01 9f 3c 73 af 81 3d 37 39 4e 3d 6a 6e 7c 3c
       0.019409787 0.063322924 0.050347533 0.015407184
000150 4d d1 04 3d 5b ad 89 3c d6 e9 b4 3d 3e 47 72 3d
       0.032426167 0.016806295 0.08833663 0.059149973
000160 de 96 83 bd 84 78 90 3d 67 78 de bd 76 d7 30 3d
       -0.0642526 0.070542365 -0.10862809 0.04317423
000170 b8 f5 ac bd 1a 1f c9 bd 90 07 bc 3d 97 2c 74 bd
       -0.08445305 -0.09820385 0.0918113 -0.059612837
000180 ae e7 40 bd 83 42 1c bd a0 6c 15 bd 0c be 88 3d
       -0.047095947 -0.038149368 -0.036480546 0.066768736
000190 2a 87 81 3c c2 54 51 bd 0d 2c c9 3d 71 3d 66 bd
       0.015811522 -0.051106222 0.09822855 -0.05621094
0001a0 33 13 b4 3d 60 cc 48 3d 9b ea 4b bd d3 28 b3 3d
       0.087927245 0.049023032 -0.049784284 0.08748021
0001b0 8a ff ea bc d8 f3 39 3d e5 6c 14 bd fb 71 a9 3c
       -0.028686304 0.045398563 -0.036236662 0.020684233
0001c0 38 31 cd 3c 74 02 3c 3d cd d9 02 bd 1d 37 53 bd
       0.025047883 0.045900777 -0.031945992 -0.051566232
0001d0 fd 1d 73 3d e7 8f 31 bd e3 c9 b2 bd 77 92 dd bc
       0.05935477 -0.043350127 -0.08729913 -0.027047379
0001e0 a3 42 1d bd 96 dd 08 bd 7d 53 e3 3c 02 71 d9 3d
       -0.038393628 -0.033414446 0.027749771 0.10617258
0001f0 93 6d 51 bd ad 73 7d bd ba ba 9f bd 61 f5 c2 3c
       -0.05112989 -0.061877895 -0.07799287 0.023798646
000200 d8 f1 aa 3c ef 0f 6b bd d4 b0 1f 3c f0 2f 54 bd
       0.020867273 -0.057388242 0.009746749 -0.05180353
000210 63 9a 3e 3d bf 05 95 bd 64 40 62 bd e8 be 0d 3d
       0.046533953 -0.072764866 -0.05523719 0.03460589
000220 d5 46 f0 3d 78 34 f7 3d 4f 99 0f bd f1 e9 84 bd
       0.1173226 0.120705545 -0.035058316 -0.06489933
000230 f6 87 2e bb 5e b4 85 bd 1a 86 67 bd b5 39 4b ba
       -0.0026631332 -0.06528543 -0.056524374 -0.00077524345
000240 95 64 b4 bd 07 bc 23 3d ae 16 e6 bd ad 86 d2 bd
       -0.08808247 0.03997424 -0.112347946 -0.102795936
000250 59 58 de 3b a2 22 66 bb 02 2f 3d 3c df e3 6f bd
       0.006785434 -0.0035115858 0.011546852 -0.058566924
000260 bf 51 7d 3d 12 fc b7 bd 61 eb d8 3b 96 24 02 be
       0.061845537 -0.089836255 0.006619856 -0.12709269
000270 51 20 f2 bc 70 42 a3 bd d1 4e a4 bc b2 9a 7f 3d
       -0.029556425 -0.07971656 -0.020057114 0.06240339
000280 d0 63 6b 3d 3b ef 13 3c 6e ba 94 3d 33 53 04 be
       0.057468235 0.009029205 0.07262121 -0.12922363
000290 62 b9 80 bd 67 bb 4a bc bf 8b 55 bd bc 0c 87 bd
       -0.06285359 -0.012373782 -0.052135225 -0.06594226
0002a0 b8 bf 43 3a c5 65 d6 bc a2 61 ed bc 8c 1a a1 3c
       0.0007467228 -0.026171574 -0.028977219 0.019665979
0002b0 4c d9 bd 3c 47 2f fa 3c fa db 16 bd c3 b6 5f bd
       0.023174904 0.030540122 -0.03683088 -0.054617655
0002c0 a4 95 bc ba f4 db bf 3c 48 b7 87 3c e8 12 4c 3d
       -0.0014387858 0.023420312 0.016566887 0.049822718
0002d0 d1 37 bf bc 11 24 4b 3d 61 79 3f 3d 7a a5 17 3c
       -0.023342045 0.049594942 0.046746615 0.009255761
0002e0 b5 5b cd bd d9 f5 3b bd c7 97 a8 bd 85 a5 6a bb
       -0.10027257 -0.045888755 -0.08232074 -0.0035804224
0002f0 8f af a1 3c cb 76 bd bd be a3 05 3d f9 7e 33 3d
       0.019737033 -0.092511736 0.03262686 0.043822262
000300 b5 76 52 bd b1 f2 ae 3b 77 ff c1 bd 5d 82 4f bd
       -0.05138274 0.0053389897 -0.09472554 -0.050661433
000310 88 1d 15 3d 66 8a 86 3d 4f f8 21 3d 2c 6f 8f 3c
       0.036405116 0.06569366 0.039543446 0.017509066
000320 a6 78 48 bb 9b 8b 04 3d fe 4c 10 3c 29 bc 8a bb
       -0.003058949 0.0323597 0.008807419 -0.004233856
000330 d2 22 c2 bc 63 de 3d bd 04 ee 1f 3d 98 21 be 3b
       -0.023698244 -0.046354663 0.03904535 0.0058023445
000340 0a 0d a7 bc dc b5 f5 3d cb 72 91 bc 73 ab 08 3e
       -0.02039196 0.119975775 -0.017754933 0.13346653
000350 76 86 f5 3d 65 ba a5 3d f8 32 34 3d e7 4c 72 bd
       0.11988537 0.080921926 0.04399392 -0.05915537
000360 b7 f0 c7 3d e8 99 1b 3d 19 65 2c 3d 84 0b 23 bc
       0.097627096 0.037988573 0.0420886 -0.009951476
000370 0f 6f d5 3d 4a 29 86 3a 34 55 ae bd 09 fd 94 bc
       0.10421573 0.0010235694 -0.08512345 -0.018187063
000380 ae 62 1b 3d 6d 38 e1 bd 28 d4 fb bd 13 2c e1 3d
       0.037935905 -0.109970905 -0.12296325 0.109947346
000390 a0 96 a0 3d 69 8c fa 3d 9d f1 e3 bd 87 8f 06 3e
       0.078412294 0.12233812 -0.111300685 0.13140689
0003a0 a9 4d fd 3d 9b 7d b0 3d cd e6 84 bd eb 3a fc 3c
       0.12368328 0.08617707 -0.06489334 0.030789813
0003b0 6b 3f 82 bd e8 0f 94 3d 38 19 e9 3c e1 44 2f 3d
       -0.06359752 0.072295964 0.028454408 0.042790297
0003c0 49 e2 b5 bb 81 61 1e bd a7 e8 9b bd c8 58 a1 3d
       -0.005550657 -0.038667206 -0.07612734 0.07878262
0003d0 d7 79 9f 3c 88 fa db 3c 2c 99 00 bc 94 41 d1 3b
       0.019467277 0.026852861 -0.007849019 0.0063859913
0003e0 b5 b1 92 3d aa 36 87 bc d1 ce 91 bc 2e b1 c2 bc
       0.07162801 -0.016505558 -0.017798813 -0.023766126
0003f0 ee 65 4f 3d f4 db f6 bc 84 23 1b bd 19 b4 8a 3d
       0.050634317 -0.030134179 -0.037875667 0.06772632

structural_attn.structural_layer_0.lin_residual.weight f4 [128, 143]
000000 0f d0 9a bd 1e 25 ce bd a2 2c bd bd 43 85 ce 3c
       -0.07559215 -0.10065673 -0.09237029 0.025210029
000010 7d 33 ae bc bb 12 ef bc 9e bd 05 3d cb 6e 1b bc
       -0.021264786 -0.029183736 0.032651536 -0.009486864
000020 a0 05 f5 bc bc 79 fd 3c 7f 04 a1 bd 6b 7d c3 bd
       -0.029909909 0.030941837 -0.07862186 -0.09545406
000030 cd c9 47 bc 7e 09 35 bd be e6 cf bc 8a a1 ab bd
       -0.012194109 -0.044198506 -0.025378581 -0.083804205
000040 a7 3f de bd f1 95 f5 bc fe 84 71 3d 26 c3 47 3c
       -0.108519845 -0.029978724 0.05896472 0.012192523
000050 41 38 37 bd d9 d5 b7 3d 2d 14 a8 3d 57 91 2f 3d
       -0.044731382 0.08976335 0.08206973 0.042863216
000060 e1 42 2e 3d 23 de df bc eb 8e 8c 3c 77 b7 e5 3c
       0.04254425 -0.027327603 0.017157992 0.028041584
000070 99 97 4f bd 58 a7 ea 3c 7e 2e b0 3d a0 b1 4a bd
       -0.050681684 0.028644249 0.08602618 -0.049485803
000080 ec 37 1e bd b2 9e 26 bd f3 60 53 bc e7 88 31 3c
       -0.03862755 -0.040678687 -0.012901532 0.010835863
000090 9e 96 e9 bb 78 b1 29 ba 3b 8c c7 3c 88 c7 1e 3c
       -0.0071285507 -0.0006473283 0.02435886 0.009691127
0000a0 57 3d 43 bd 91 9a d5 3c df 0e 05 3d b9 d6 ac 3c
       -0.04766592 0.02607468 0.032484885 0.021098481
0000b0 c9 09 d7 bc 47 ba f1 3d ec 4d 9e 3d 09 4d a0 3d
       -0.026249783 0.11803108 0.07729706 0.07827193
0000c0 fe 5d 2e 3c 44 e8 1b 3d bb 5f 89 bd a9 72 56 bc
       0.010642527 0.038063303 -0.06707712 -0.013088861
0000d0 47 ec fc bc 76 c8 fb bc e9 69 a8 3d f9 2d c8 bc
       -0.030874385 -0.030735236 0.08223326 -0.024435984
0000e0 07 48 31 bd b3 6d c6 3d b7 bf ce 3d fc 9c 2b 3d
       -0.04328158 0.09688892 0.100951605 0.04189776
0000f0 f3 93 fc bd 6c 95 a5 3d f7 93 8c bc d9 c1 61 3a
       -0.123329066 0.080851406 -0.017160399 0.00086119544
000100 7c bb 63 3d 2b 1e 6c 3d c1 ff 9d 3c 70 c2 2d bc
       0.05559872 0.057645958 0.019286992 -0.01060544
000110 c2 32 0e bd 8d 04 43 bd 57 ba f0 3d d0 19 0c bd
       -0.034716375 -0.04761176 0.117542915 -0.034204304
000120 ef 79 ae 3c c1 85 38 3d 69 be c2 3d b9 54 2e 3d
       0.021298377 0.045049433 0.09508974 0.042561267
000130 df 8c f5 bb 58 5d 01 3b d3 8c 13 3d 2e 0d 3b 3d
       -0.0074936 0.0019739475 0.036022972 0.045666866
000140 e3 a0 0e bd eb 4a 52 bd f8 93 51 3d ca 47 b9 3c
       -0.034821402 -0.05134098 0.051166505 0.02261724
000150 85 62 93 3d 9f ab ba bc 31 ff 46 3d 3a 53 da 3d
       0.071965255 -0.022786913 0.048583213 0.106604055
000160 d8 70 08 bd c8 94 18 bb 52 60 92 bd 31 cf 85 bd
       -0.03331074 -0.002328204 -0.07147278 -0.06533659
000170 65 d0 81 bd a9 ab a3 bd bc d6 c3 3d 31 a5 bd bc
       -0.06338576 -0.07991726 0.09562442 -0.023150058
000180 ff ba 40 bc 8b 91 2a 3d 94 8e 95 bd 5d 56 9a bc
       -0.011763333 0.041642707 -0.07302585 -0.01884001
000190 3c f6 60 bd 03 5e aa 3d e2 67 cf 3d 8c 33 28 bd
       -0.054922327 0.083187126 0.10127236 -0.041064784
0001a0 40 7d c0 3d f1 8b 4f bb 41 77 bf 3c 10 bc 7a bc
       0.093988895 -0.0031669105 0.023372294 -0.015303627
0001b0 ab 43 40 bd 67 77 d8 3d 78 ec 4e 3b 64 d5 93 3d
       -0.046939533 0.10569649 0.0031574052 0.072184354
0001c0 3d 42 21 3c 18 9b b4 ba 3b 80 e4 bb d1 5e 1d 3d
       0.009842453 -0.0013779132 -0.006973294 0.038420502
0001d0 8d 55 a7 3d 34 13 89 bc f1 bd 8d bd d5 cb 07 bc
       0.081706144 -0.01673279 -0.06920994 -0.008288343
0001e0 63 83 2d 3d 08 83 c4 3d dd 49 c0 bc 14 9c cb 3d
       0.04236163 0.09595305 -0.02347272 0.09941879
0001f0 6f 85 36 3b 6a 20 80 3c a2 30 8e bd 3a 48 0c 3d
       0.0027850529 0.015640456 -0.0694287 0.034248568
000200 e6 c4 b3 3d 35 22 06 3d 4e 2e 00 be 25 99 2d bc
       0.0877779 0.032747466 -0.12517664 -0.0105955945
000210 9a fa 89 bd b8 28 9a bd db 04 7b bd 37 f6 9b bd
       -0.067372516 -0.07527298 -0.061283927 -0.07615321
000220 eb 62 33 3d 2f 67 8d 3d 00 ca ca 3c bb 55 89 bc
       0.043795507 0.06904446 0.024754524 -0.016764512
000230 1f 0c 11 3c 22 64 75 3d 2e 4d 8d 3d 7c 20 65 3d
       0.008852988 0.059909947 0.068994865 0.055939183
000240 7d e3 d9 3c c1 ab bb 3d b0 b8 a7 3c 80 e0 41 bd
       0.026597733 0.09163619 0.020473808 -0.04733324
000250 21 64 e6 bd 13 4b 2b 3c 51 c8 10 3d f3 45 e8 3c
       -0.11249567 0.010454911 0.035347287 0.028353667
000260 39 2e b5 bc 1c bd 1a bd cc ef 2b 3c cb 74 d8 bd
       -0.022116767 -0.037778005 0.010494184 -0.105691515
000270 bf c7 5a bc 86 74 06 bc 1b b2 ae bd ab c1 bc bd
       -0.013353287 -0.008206492 -0.08530065 -0.09216627
000280 49 06 af 3c ad 2d 90 bd f5 9e ec 3c 81 c0 11 ba
       0.021365302 -0.07039962 0.02888439 -0.00055599964
000290 c1 03 07 3d 55 31 3f 3d d4 81 98 3c 51 2a 51 3b
       0.032962564 0.046677906 0.018616594 0.0031916092
0002a0 21 76 5d 3c c8 98 dc ba b0 c7 35 3d 42 35 c4 3c
       0.013516934 -0.00168302 0.04437989 0.023951177
0002b0 66 16 37 ba 74 5a c5 bd d0 72 8d bd d5 ca e0 bd
       -0.00069842336 -0.09636393 -0.06906664 -0.10976187
0002c0 10 3a 0f 3d 4a f3 f5 bc df 8e 4a bd 11 54 02 bd
       0.034967482 -0.030023236 -0.04945266 -0.031818453
0002d0 c3 51 0f 3d 03 83 03 3d d0 8c 0c 3d 6b 1a 10 bd
       0.034990083 0.032107364 0.034313977 -0.035181444
0002e0 aa 7a 50 3d ed a0 a9 bd 8a ad 61 3d 70 e2 86 bc
       0.05089823 -0.08282647 0.05509714 -0.016465396
0002f0 7a 14 9d bc 8a 35 d1 bc eb cf fe 3c 67 dd 2d 3d
       -0.019174803 -0.025538225 0.031105002 0.042447474
000300 5d 86 2c 3d 33 18 88 3c 9c ad a7 bd 91 fb d7 bd
       0.042120326 0.016613102 -0.0818741 -0.10546029
000310 ee d0 4c bd 03 ff be bc 6d c7 0e 3d 6a 4f 0c 3d
       -0.05000394 -0.023314958 0.034858156 0.034255423
000320 48 75 67 3d 27 dd 47 3d 9c 1a 04 be 14 88 a7 bd
       0.056508332 0.04879489 -0.12900776 -0.08180252
000330 69 23 6c bd d7 42 d2 bb 5e ac 5d 3c f2 f7 37 3c
       -0.057650957 -0.0064166593 0.013529865 0.011228548
000340 67 5c c1 bc 35 0a e5 3d 1a df 9e 3d 8a 73 67 39
       -0.023603631 0.111835875 0.07757397 0.00022072918
000350 43 23 2a 3c 1d d3 5f 3d 9c c9 57 3c 49 fc 4c 3c
       0.010384384 0.054644693 0.013170626 0.012511321
000360 da 12 4e bd a7 36 a2 3d 4a 92 a3 3c 0f 1a b5 3d
       -0.050310947 0.0792058 0.019967217 0.08842861
000370 f9 83 f3 3d 63 19 87 3d ff aa 3a 3d 1e 48 54 bd
       0.11890406 0.06596639 0.04557323 -0.05182659
000380 e5 00 94 3d 6d f6 59 bd ff 48 83 bd 66 16 01 3e
       0.07226733 -0.053213526 -0.06410407 0.126062
000390 ab ed c7 bd 24 59 5a bd ee 26 66 bd b0 32 be 3c
       -0.097621284 -0.053307667 -0.05618947 0.023217529
0003a0 6c ac 8e 3d 0e 88 83 3d 91 35 84 bd 0c fd e4 3d
       0.069664806 0.06422435 -0.064555295 0.11181077
0003b0 9c 24 65 bd e8 d3 ad 3d 4e fe 01 3e a1 15 f6 bb
       -0.055943117 0.084876835 0.12694666 -0.0075099026
0003c0 b4 97 ff 3d 5e eb 66 bd 23 a0 03 bb 94 eb d5 3d
       0.12480107 -0.056376807 -0.0020084463 0.104453236
0003d0 61 06 59 3b 2a 45 9b bd 03 96 24 bc e5 ac 0a 3e
       0.0033115374 -0.075815514 -0.010045531 0.13542517
0003e0 89 f8 a1 bd ca f8 ff bc d6 c0 90 3c cd 53 a0 3c
       -0.079087324 -0.031246562 0.017670076 0.01957121
0003f0 6b 02 b4 3d 44 8d f1 bd 5d 4d 46 bd 9d 02 e7 3c
       0.08789524 -0.117945224 -0.048413623 0.028199488

temporal_attn.temporal_layer_0.position_embeddings f4 [16, 128]
000000 a1 f7 f9 3d 0a a9 27 bd fb ff 18 bb 9f d3 22 3c
       0.122054346 -0.040932693 -0.0023345936 0.00993815
000010 2c a9 a1 3d a3 d7 d6 bd 93 bc 5b bd f7 60 23 be
       0.07893595 -0.10490348 -0.053646635 -0.15954958
000020 95 57 09 3e 6c 45 a5 3d e5 63 11 be 8a 98 a4 bd
       0.13412316 0.08069882 -0.14198263 -0.08036907
000030 c4 f9 66 3d ad ff 25 bc 40 6c 19 3e 23 4a a5 3c
       0.05639054 -0.010131759 0.149827 0.020176953
000040 54 bf 0f 3e 88 ea a3 3d ff fc 20 bd d6 68 8f 3d
       0.1403783 0.08003718 -0.039303776 0.07002418
000050 6f 9b 09 be d5 62 98 3d dc b5 b2 bd 2d 70 be bd
       -0.134382 0.07440726 -0.08726093 -0.092987396
000060 1e cd 2f bd b4 2a 0d 3c b0 89 d9 bd 27 3a 8c bd
       -0.042920224 0.008616138 -0.10621965 -0.06847029
000070 14 c1 08 3e 44 e2 1b 3e 4e 4b 5a 3d 02 be 1c 3e
       0.13354903 0.15223032 0.053294472 0.15306857
000080 2a 2c f6 bc 7f 15 82 3d b5 65 e0 bd d9 55 f9 3d
       -0.030050356 0.06351756 -0.10956899 0.12174577
000090 44 d3 f4 3d ca da 1a bc f2 b2 14 3d 0d a0 21 be
       0.11954358 -0.009451577 0.036303468 -0.15783711
0000a0 56 f4 a4 3d 17 61 25 3d 1a c6 18 be e8 08 55 bc
       0.08054416 0.040375795 -0.1491932 -0.013002612
0000b0 b9 e7 08 3e 6f 26 fd 3d 9a ad 98 3d 87 7d 6e bd
       0.13369645 0.12360846 0.07454987 -0.05822518
0000c0 63 ee 9f bc 77 26 6e 3d 9e 49 09 be 2a 84 3d 3d
       -0.019522851 0.05814215 -0.13406989 0.04626862
0000d0 aa df 04 be fc 0d c6 bd 15 11 83 3d cb ae 2e be
       -0.12975946 -0.09670636 0.063997425 -0.17058866
0000e0 41 1e 1f be 7f ae c2 bd 8a 2f d5 3d 5d a5 6f 3d
       -0.15538885 -0.09505939 0.10409458 0.058507312
0000f0 b0 e3 5d 3d aa c4 c1 3d da fe 05 3e b2 58 99 bd
       0.054172218 0.09461339 0.130855 -0.074876204
000100 c1 c7 57 bd 33 95 aa 3c 1d 30 3a 3d 38 d7 a7 3d
       -0.052680735 0.020823097 0.04545604 0.081953466
000110 da da 25 3d b6 d1 bd bd 45 98 27 bb 94 47 83 bd
       0.040491916 -0.09268515 -0.0025572937 -0.06410137
000120 90 76 cf bd 93 10 cb 3d fd 6f 00 be aa ef c8 bd
       -0.10130036 0.09915271 -0.1254272 -0.09811337
000130 a9 07 f6 bd 16 c3 84 3d 55 f5 ba bd 92 b8 e7 3d
       -0.1201318 0.06482522 -0.091288246 0.11314501
000140 5f f2 4e bc d7 9c 8b bd d6 3d 04 3d dd 6b 86 3c
       -0.012631028 -0.06817024 0.032285534 0.016408855
000150 7e 40 ef bc a3 5d a0 3c b4 e3 98 3d 49 8c 8c 3c
       -0.029205557 0.0195759 0.07465306 0.017156737
000160 4e 61 bb b8 76 a5 ec 3d 26 4a 13 3d 6f 72 df bc
       -8.934979e-05 0.11554997 0.035959385 -0.027276246
000170 8c 1e 0f bd 9c 4a 3a bd 61 e7 1f 3e 16 b8 84 bd
       -0.03494124 -0.04548131 0.15615608 -0.06480424
000180 34 88 05 3e 0e 27 bb 3d b9 f0 4f 3d 8e 9b 90 bc
       0.13040239 0.091383085 0.05076668 -0.0176523
000190 ee 82 b1 bc 2c 4b 8e bd bc 38 ef 3d f3 d6 1c 3d
       -0.021668877 -0.06947932 0.11680743 0.03829093
0001a0 e2 a9 6c 3c 72 d7 10 be 73 5f 1a be 1f b4 0f be
       0.0144448 -0.14144686 -0.15075473 -0.14033554
0001b0 38 83 f2 3d 08 73 c7 3a c8 37 df bd c4 02 8d 3d
       0.11841434 0.0015216777 -0.10899311 0.06885293
0001c0 ca 6e c1 bd d2 51 a7 bd 41 af ad 3c 80 42 f9 3c
       -0.094449595 -0.08169903 0.021201732 0.030427217
0001d0 74 7c 9f 3d 6d 56 a8 bc c2 47 a7 bb 4f b0 77 3d
       0.077874094 -0.020549024 -0.0051049897 0.060470875
0001e0 5e a6 8c 3d 1b eb 01 be 7d e7 d4 bd 4b f2 bd bd
       0.068676695 -0.12687342 -0.103957154 -0.09274729
0001f0 2e 14 7e 3c 2b 01 bc 3d c5 7a f7 bc da 26 89 ba
       0.015507741 0.0917991 -0.030209908 -0.0010463849
000200 6e 58 36 3e 62 c5 08 3e 0f 50 06 be 65 3c 7a 3d
       0.17807171 0.13356546 -0.13116477 0.061092753
000210 cb 2f 02 be 5f 32 de 3d 06 f6 15 3e 67 9e d4 3c
       -0.12713544 0.10849451 0.14644632 0.025954438
000220 b9 bc 25 3e cb 2c c5 3d 0d b0 ab bd a0 4c f1 bd
       0.16185273 0.09627684 -0.083831884 -0.11782193
000230 a4 86 58 3d 0e d7 26 bc cc 89 80 3d de 8a 51 bd
       0.05286278 -0.010183109 0.06276283 -0.051157825
000240 99 ee 0a 3e 54 55 3f bd 91 03 23 3e 1a fc 17 be
       0.1356758 -0.046712235 0.15919329 -0.14842263
000250 18 24 9c bc 53 0f ad 3d 97 03 b6 3d 21 ec 07 3e
       -0.01906018 0.084501885 0.088874035 0.1327367
000260 14 e0 1d 3e ad c1 eb 3d 07 76 71 3d 70 6a 05 bd
       0.1541751 0.1151155 0.05895045 -0.03257221
000270 eb 0e e7 3d eb 7b 0e 3d 87 5e 28 bd 89 27 a1 3d
       0.11282142 0.034786146 -0.041105773 0.07868869
000280 e1 ea c9 3d 13 1c fd bd 6f d7 72 bc bb 01 af 3d
       0.09859253 -0.1235887 -0.014821871 0.08545252
000290 47 a3 90 bc 4f 8f ff bd 9c ab 87 bd f2 2f 1f be
       -0.017655982 -0.12478506 -0.06624529 -0.15545633
0002a0 6a 99 ba bc 75 f1 a1 3a 0a 7f 8c 3d f5 b3 44 bd
       -0.022778232 0.0012355285 0.06860168 -0.048023183
0002b0 2c fb 95 3d 08 37 00 3e 55 6d ed 3d 4e 37 21 be
       0.07323298 0.12520993 0.11593119 -0.15743753
0002c0 2e fe 12 3e 90 97 50 bd ce 0d cd bd d4 88 ba bd
       0.14354774 -0.05092579 -0.10012399 -0.09108129
0002d0 db 53 11 3e 42 1f a9 3d e0 c7 93 bc 47 39 a5 3c
       0.14192145 0.08257915 -0.018039644 0.020168914
0002e0 08 c6 7b bd f9 6c fd 3d 8e 69 4a bd 4b 49 56 ba
       -0.061468154 0.123743005 -0.04941707 -0.00081743737
0002f0 eb 1e 14 bd c6 1a 8a bd 86 2d f6 3c be 98 bc bd
       -0.0361623 -0.06743388 0.030051004 -0.09208821
000300 10 06 f7 3d eb 59 cd 3d ea e7 f9 bb ce e6 06 3d
       0.12061703 0.10026916 -0.0076265233 0.032934956
000310 70 64 a2 3d a9 7f ae 3d a4 df a7 bd 91 61 cb bd
       0.07929313 0.08520443 -0.08196953 -0.09930719
000320 bc 6b ff 3d f5 6b 90 3a 40 5d df bd 02 10 34 bd
       0.124717206 0.0011018502 -0.10906458 -0.04396058
000330 e6 b0 09 3e 0f 55 4c 3d d6 ec a6 bd 44 1f c1 bd
       0.13446388 0.049885806 -0.081506416 -0.094297916
000340 1b 98 09 3e 79 5f 90 3d 94 1a 86 3d ac 19 bc 3c
       0.1343693 0.0704946 0.06548038 0.02296146
000350 ef 21 09 3e 05 ff 00 3e 2c 90 ae bd 54 8b 7c bc
       0.13391851 0.12597282 -0.08523592 -0.015414078
000360 66 dd e1 bc ee 9b e6 bd 28 a3 d7 3d e9 db 01 bd
       -0.027571391 -0.1126021 0.105291665 -0.031703863
000370 f2 22 0e be 23 0e 03 3e 13 07 f4 bd 55 db 82 bd
       -0.13880518 0.12798361 -0.11915412 -0.063894905
000380 37 aa 9a 3d a3 59 b3 bd 39 fd 18 3d c4 2b c6 3d
       0.07551997 -0.08757331 0.037350867 0.096763164
000390 0b 5f ff bd e4 3e 13 3e 96 fc e3 bd ce 12 29 bd
       -0.124693 0.1437946 -0.11132161 -0.0412777
0003a0 a4 4a 97 3d ff fe 56 bd 10 a2 4d bd 89 de 10 be
       0.073872834 -0.052489277 -0.050203383 -0.1414739
0003b0 a7 c6 92 3d e1 67 0a be 14 bd 04 bc f3 7c 08 3e
       0.07166796 -0.13516189 -0.00810172 0.13328914
0003c0 c8 99 13 3c 2a bb 18 bd c9 b9 12 3d 2e 0a f7 bc
       0.009008832 -0.03728787 0.03582171 -0.030156221
0003d0 e6 07 a5 3d 45 6b 0b 3e ee 59 db 3d 75 fa 77 bd
       0.08058147 0.13615139 0.10710512 -0.06054159
0003e0 38 4b d4 3d 03 f1 dc bd 7c aa c8 3d 27 1a 2b bd
       0.10365909 -0.10788157 0.09798142 -0.041772988
0003f0 b9 fd 9b 3c a0 b6 bb 3d 4c a0 79 bc 1d bf 84 3d
       0.019041883 0.09165692 -0.015235972 0.064817645

temporal_attn.temporal_layer_0.Q_embedding_weights f4 [128, 128]
000000 ea 4f 0b 3e 64 83 84 3d 13 f3 1f 3d b6 c2 de 3c
       0.13604704 0.06470373 0.039050173 0.027192455
000010 f8 da e1 3d 5d 06 d2 3d e9 29 5d 3c c6 2a c1 3d
       0.11028093 0.1025512 0.013498762 0.094319865
000020 0d d0 6f bd 26 04 1c 3d cb bc ab bd 76 a1 3e be
       -0.058548022 0.038089894 -0.08385619 -0.1861628
000030 d4 62 85 3c d9 03 fe bd be c9 a4 bd e0 7f d5 bd
       0.016282476 -0.12403078 -0.08046292 -0.10424781
000040 ef e4 f7 3d 70 c8 1c be 97 6c 26 3e c0 aa 82 bd
       0.121042125 -0.15310836 0.16252361 -0.06380224
000050 b7 ef c4 bd 36 72 a4 3d 82 04 92 3d c9 74 01 3e
       -0.096160345 0.080295965 0.07129766 0.12642206
000060 2f f7 0e be bc 84 6a bd c3 09 e0 3c 06 dd 0e be
       -0.1396148 -0.05725549 0.027348405 -0.13951501
000070 50 ab 5b bc 17 7a 26 bd f4 27 6f bc 82 b0 4f bd
       -0.013407543 -0.040643778 -0.014596928 -0.05070544
000080 67 4a 19 3e d7 6e 04 3e 8c 2f 0a bd 08 9e 83 bd
       0.14969788 0.12932907 -0.03373675 -0.064266264
000090 a9 c0 a7 3c f1 22 99 3d 9f 8e cf ba 8d 05 a7 3a
       0.02047761 0.07477368 -0.0015835351 0.0012742743
0000a0 23 62 ae bd 43 e3 67 3d 66 d8 38 3e d8 f7 0c be
       -0.08514812 0.056613218 0.180513 -0.1376642
0000b0 15 9b 09 3d 79 86 9f 3d a9 70 bc bd 83 67 7a 3d
       0.033595163 0.077893205 -0.09201176 0.061133873
0000c0 69 90 27 3e 88 33 be 3d a8 33 f6 bd fc 3f 20 3e
       0.16363682 0.092871726 -0.120215714 0.15649408
0000d0 ef 11 bf 3c 1f d9 c8 3d 91 79 c6 3d 2c 6a c4 bd
       0.023323981 0.098070376 0.09691156 -0.09590563
0000e0 45 99 0f be 43 a0 82 3d 19 d2 ce bd 43 1f 10 3b
       -0.14023311 0.06378224 -0.10098667 0.002199129
0000f0 61 25 f8 3c 09 6f 5d bd 86 e4 e4 bd 69 ae 28 3e
       0.030291261 -0.05406097 -0.111764 0.16472782
000100 8b 9a 82 3d 62 1a 6d bd 42 2d 31 3e 19 30 e0 3d
       0.06377133 -0.05788649 0.1730242 0.10946674
000110 73 5b 5f 3c 9b 3b 90 3d a3 9b f1 bd 30 8c 37 bc
       0.013632643 0.07042619 -0.117972635 -0.011202857
000120 30 06 ab 3d fd 2a ed bd 0a 60 04 3e 09 dd 18 bd
       0.083507895 -0.11580465 0.12927261 -0.03732017
000130 6a 1f c5 bd a0 c2 c9 bd 08 62 b7 3d 37 cc 7c bc
       -0.096251324 -0.09851575 0.08954245 -0.015429548
000140 41 69 27 3d 52 16 ce 3d af b9 e6 3d 64 b8 03 3e
       0.040871862 0.10062851 0.11265885 0.12863308
000150 a2 df 8f bd d9 9f 2f 3d 32 28 ec bd be 95 4c 3c
       -0.070250764 0.042877052 -0.11531104 0.012486873
000160 61 71 ab 3d c1 df e1 3d c0 58 fd 3d 58 06 ec 3d
       0.08371235 0.11029006 0.12370443 0.115246475
000170 64 28 3c bc c9 6a 84 3c 00 5a b9 3d d2 bb 1d be
       -0.011484239 0.0161642 0.09050369 -0.15403679
000180 7a 62 c5 3d c4 8e 66 3d a0 ce fb 3d a0 93 90 bc
       0.096379235 0.056288496 0.1229527 -0.017648518
000190 52 ef 1d be 6e 28 30 3c f3 30 c5 3d 83 a5 7c 3b
       -0.15423325 0.010751827 0.09628477 0.00385508
0001a0 34 90 38 3d 45 d9 ae 3d 10 fc 8c 3c 02 c9 d0 bd
       0.045059398 0.085375346 0.017210037 -0.10194589
0001b0 0d 31 46 be 27 60 29 3d d3 a4 9c 3d c9 dc cc bc
       -0.19354649 0.041351464 0.07648625 -0.025007622
0001c0 83 62 70 bc ea 87 3b bd 1d 06 33 bd 4b 92 b9 3c
       -0.0146719245 -0.045783915 -0.043707002 0.022652766
0001d0 b7 bd 2d 3e 1a 14 cf bc 9a ef 15 3e 0c 28 49 3d
       0.16966902 -0.02527814 0.14642182 0.049110457
0001e0 1a 10 b9 3d 4e 3f c9 bd eb 15 fa bd eb fb 28 be
       0.09036274 -0.098265275 -0.12211212 -0.16502349
0001f0 5b 72 e0 bd ea d5 b5 3d 87 79 2d be ec 81 5a 3c
       -0.109593116 0.088786915 -0.1694089 0.01333664
000200 b5 1b 03 bd c8 c5 08 be c6 cc 9a 3d ad ff 20 3d
       -0.032008845 -0.13356698 0.07558589 0.03930633
000210 39 a1 82 bd 57 b8 37 be 21 97 34 3e db c9 18 3d
       -0.06378407 -0.17941414 0.17635776 0.03730188
000220 d1 03 c9 3d bf ba 4d bc 7f e3 53 3c 6d 26 06 3e
       0.09815181 -0.012556731 0.012932657 0.13100596
000230 3a 11 aa bd e2 b0 c4 3d e7 56 a1 3d e2 c2 68 bd
       -0.08304067 0.0960405 0.078779034 -0.05682648
000240 69 3c b1 bd fb b5 86 bd 86 bb 7a bb 29 4d 56 3d
       -0.086541004 -0.06577679 -0.0038258745 0.05231968
000250 2f 46 83 3d ac 76 b8 3d 4d 1d 80 bd 0a 91 6a bd
       0.06409871 0.0900701 -0.06255589 -0.057267226
000260 b1 3b 1f 3e f2 46 e1 3d 49 00 c6 3c e4 46 c6 3d
       0.15550114 0.1099986 0.024170058 0.0968149
000270 bd 2c ca 3d ee 39 0f 3e 90 97 84 3a e6 90 f3 3d
       0.098718144 0.13986942 0.001011597 0.118928716
000280 3f da 55 3d bd 79 00 3e 96 a0 37 be 49 17 42 3d
       0.05221009 0.1254644 -0.17932352 0.047385488
000290 eb 5b 6a 3c 84 70 c4 bb db 0f f6 bc 68 02 c0 3d
       0.0143041415 -0.005994858 -0.030036857 0.09375459
0002a0 6e 41 2e be 91 1b 66 bd db a9 48 bd 40 9a ed bd
       -0.17017147 -0.056178633 -0.04899011 -0.116016865
0002b0 df f9 55 3c 59 98 a9 3c 8e 61 e4 bc 3b ea f2 bb
       0.013060062 0.020702528 -0.027878549 -0.0074131764
0002c0 95 d0 dc bd 37 5e a2 3d bd 93 9c 3d 79 30 00 3e
       -0.10781971 0.07928126 0.07645366 0.12518491
0002d0 59 90 08 bd f7 63 2a 3e 81 e6 3c 3d 57 2a f9 bb
       -0.033340786 0.16639696 0.046118263 -0.0076039243
0002e0 f5 58 b8 bd b4 91 11 3e 27 8e 4c 3e 72 f0 23 3e
       -0.09001342 0.14215738 0.19976102 0.16009691
0002f0 f2 ce 1b bd de 15 b6 3d d5 09 be bd 65 d2 f1 bd
       -0.038039155 0.088908896 -0.09279219 -0.11807708
000300 03 42 1b bd c1 69 a2 bd 66 a6 32 be cd 0e 37 3e
       -0.03790475 -0.07930327 -0.17446288 0.1787674
000310 7b 86 ef 3d 0e a3 2d 3d 4f e2 4f 3e a2 17 46 bd
       0.11695572 0.04239183 0.20301174 -0.04836238
000320 ff f6 d7 3c e9 4e b1 bc 12 4a ea bd 92 00 96 3c
       0.026362894 -0.021644073 -0.11439909 0.018310819
000330 35 7c 80 bd 7b 17 e8 bd 9c b6 bd bd 61 aa 0a bd
       -0.062736906 -0.113326035 -0.092633456 -0.033853892
000340 b5 3c 2d 3e 1f 04 c7 bd ea 4a cf bd 85 81 69 3c
       0.16917689 -0.09717583 -0.101217106 0.014252071
000350 7f 1c e3 bd b8 0c d8 3d d0 cc 0d 3e 07 83 24 bc
       -0.110894196 0.10549301 0.13847661 -0.010041005
000360 34 5d 7b bd 70 7a 1f 3d 1c da 1f be 77 8b c3 bd
       -0.061368182 0.038935125 -0.15610546 -0.09548085
000370 e0 ec 1c bd 02 73 23 3d 40 96 42 3e 30 d2 60 3c
       -0.03831184 0.039904602 0.19002628 0.013721988
000380 a9 7b 8b bc e6 54 7f 3d 1b 74 b8 bb ce 1f 04 be
       -0.01702674 0.062336825 -0.005629075 -0.12902758
000390 eb 3a b6 3d 62 83 46 ba 7d 8b 2a 3e de c8 c2 bd
       0.088979565 -0.0007572678 0.16654773 -0.095109686
0003a0 f1 86 76 3d 32 ec 0e be 43 98 20 3d 6d 69 bf bd
       0.060187284 -0.13957289 0.039207708 -0.0934628
0003b0 2a a7 a2 bc ea e0 52 3d d6 e5 3b be e2 0d d1 bd
       -0.0198551 0.051484026 -0.18349394 -0.10207726
0003c0 75 87 23 3e 80 7f 0b be 25 91 c8 3d 5e c4 0c bd
       0.15969642 -0.13622856 0.09793309 -0.034366958
0003d0 2c 64 33 3e e0 37 2e be aa 66 d0 3d 05 ba 22 be
       0.17518681 -0.17013502 0.101758316 -0.15891273
0003e0 24 d1 2b 3d 24 92 ee bd 55 9f cd 3d 9c 01 3f 3c
       0.0419475 -0.11648968 0.10040156 0.011658099
0003f0 4f 7e a6 bc 17 a7 e3 3c db 6e 88 3c 86 e0 09 3e
       -0.0203239 0.027789636 0.016654423 0.13464555

temporal_attn.temporal_layer_0.K_embedding_weights f4 [128, 128]
000000 2c 86 01 3e 21 55 f3 bd 95 e1 c1 bd 52 c0 98 3d
       0.12648839 -0.118814714 -0.094668545 0.07458557
000010 d0 1c bf bd 02 c0 37 be 46 75 c5 bc 89 1a d4 bd
       -0.093316674 -0.17944339 -0.024103772 -0.10356624
000020 3b 25 1d bd 88 d1 0d be 7f 44 0f 3d b9 27 a8 bd
       -0.038365584 -0.13849461 0.034977432 -0.082107015
000030 d6 c3 08 bc 76 13 77 3d a1 bc 2e 3e 77 02 0f be
       -0.008347472 0.060321294 0.17064144 -0.13965784
000040 3f f7 a1 3b 56 dc ff bc 1b 53 f2 3c 0f 1e 47 bd
       0.004942804 -0.031232994 0.029580643 -0.04861265
000050 6e 8d 21 be 7f 84 d1 3d 1e 98 30 3e f1 dc 18 bd
       -0.15776607 0.1023035 0.17245528 -0.03732008
000060 8f ec 22 3e 4d b6 a9 3c 59 9b 90 3d 78 12 a0 3d
       0.15910552 0.02071681 0.0706088 0.07816023
000070 60 61 a4 3c 19 52 9a bc 2d 44 33 3d 65 47 0c bd
       0.020065963 -0.018837975 0.04376619 -0.034247775
000080 3b dd 22 be ae 96 4f bd 5f f0 a3 3d d9 94 f3 bd
       -0.15904705 -0.05068081 0.080048315 -0.11893625
000090 8b 64 4d bd 18 c8 10 be ad 15 01 3e 65 32 1f be
       -0.050144713 -0.1413883 0.12605925 -0.15546568
0000a0 f6 4f 39 3e 0f b0 01 be 14 10 30 3c 7c 51 e4 3d
       0.18096909 -0.12664817 0.010746021 0.111483544
0000b0 6c b6 93 3d b3 57 7b bd 41 ea e0 bd b0 7a 7d bd
       0.072125286 -0.061362933 -0.109821804 -0.061884582
0000c0 ca 13 2f 3d 0f fb 35 3d cc 54 9b 3d ba 46 1b bc
       0.04274348 0.04442888 0.07584533 -0.009477312
0000d0 34 c7 40 be 04 2b c5 bd ef 0c 31 3e 79 3c 25 bb
       -0.1882599 -0.09627345 0.1729009 -0.0025213046
0000e0 2e 88 29 3e 8c 51 4c be 1e df fc bd 92 ac e3 bc
       0.16555855 -0.19952983 -0.12347244 -0.027792249
0000f0 05 41 dd 3c e3 7a 1b 3d 79 ed 37 be 66 48 ea 3d
       0.027008543 0.03795899 -0.17961682 0.1143959
000100 a7 a2 73 3d a6 19 80 bd bf 10 3a be 3c 08 7e bd
       0.05948129 -0.06254892 -0.1817045 -0.06201957
000110 03 11 e7 bd ba 78 ea 3d bf 22 0d be d7 0f 0e be
       -0.112825416 0.11448808 -0.13782786 -0.1387323
000120 b5 f9 09 be 52 b7 b2 3d 8f 66 28 3d d1 5f e1 3c
       -0.13474162 0.08726372 0.041113432 0.02751151
000130 75 ca 11 3c 9f 70 8d bd 63 b8 58 bd 8d f0 31 3e
       0.008898367 -0.069062464 -0.05291022 0.17376919
000140 f6 8a 18 3e 16 fc b3 3d cd 57 3d be 8c 3c 48 bd
       0.1489676 0.08788316 -0.18490525 -0.048885867
000150 c4 b5 32 bb 41 ab 85 bd 1a b5 09 3e 4d a6 de bd
       -0.0027268985 -0.06526805 0.13447991 -0.10871563
000160 e5 68 a6 bd 3b 63 b5 bd 19 20 25 be 1e 73 33 be
       -0.08125476 -0.08856817 -0.16125526 -0.17524382
000170 e4 03 b3 bc ed 9e f5 3b 95 a3 fd bd 89 b1 9b bd
       -0.021852441 0.007495752 -0.123847164 -0.076022215
000180 b4 99 c3 3d f7 7d b2 3d 7d e9 8c bd e3 c2 30 be
       0.09550801 0.08715432 -0.06880472 -0.17261843
000190 8d a1 84 3d c9 5c 9b 3d 50 5a 09 be c5 4e 0e bd
       0.06476126 0.07586057 -0.13413358 -0.03474309
0001a0 a5 bc 95 bc 5f b9 db 3c b1 e4 96 3c 92 3d 67 bc
       -0.01827843 0.02682179 0.018419595 -0.014113801
0001b0 24 df ba bd b1 37 9c 3d 94 fe a4 3c ad 19 37 3e
       -0.09124592 0.0762781 0.020140924 0.17880888
0001c0 50 e2 04 be 89 2e b4 bd de e6 22 be e2 80 21 bd
       -0.12976956 -0.087979384 -0.15908381 -0.039429553
0001d0 35 80 bd bd dd 70 81 3d 8c a5 ad 3d 71 47 ba bd
       -0.09252969 0.06320355 0.08478841 -0.090956576
0001e0 dd 72 78 3d 83 7e ea 3c 49 0e ba bd 93 b7 36 be
       0.060656417 0.028624779 -0.09084756 -0.17843466
0001f0 d5 cb 36 bc 14 8d 16 3d a6 68 e8 bd 17 9c 2f 3d
       -0.011156996 0.036755636 -0.11348085 0.04287347
000200 94 9b c7 b6 4f 54 9c bd a9 e3 7d 3d fa 1f ac 3d
       -5.948774e-06 -0.07633268 0.06198469 0.084045365
000210 ad a5 19 3e 81 5c 79 bd c2 2c 25 bd 80 c5 47 3e
       0.15004607 -0.060879234 -0.040325888 0.19508934
000220 cb 48 d2 3d f5 4a 89 3d ae b5 8c bd 93 5b 2e 3d
       0.102677904 0.0670375 -0.0687059 0.0425678
000230 8c c3 42 3e 32 91 b1 3d 51 d2 4d 3c c6 2d a6 bd
       0.19019908 0.08670272 0.01256235 -0.08114199
000240 7a 58 33 bc 93 6e 01 3d 45 60 9b bc b1 00 9a bd
       -0.010946387 0.031599592 -0.018966803 -0.07519663
000250 15 8a 8d 3c ef 5e e4 ba 26 72 41 3c 20 9a 04 3e
       0.017277757 -0.0017423312 0.011807 0.12949419
000260 ca e9 16 3e 0a f4 37 bd c8 2e 1a 3e 1d 1b 25 be
       0.14737621 -0.04491047 0.15056908 -0.16123624
000270 76 96 65 bd 44 23 cb bd 36 fa d7 3c c6 d3 12 3e
       -0.056051694 -0.09918836 0.026364427 0.14338598
000280 1a bf 6a bd 25 1f 21 be 75 4b 3d be 8f 39 82 bd
       -0.057311155 -0.15734537 -0.18485816 -0.06358635
000290 56 22 bc ba 21 29 a0 bd 7c f2 ca bc 7c 5a 02 3e
       -0.0014353495 -0.07820345 -0.024773829 0.1272983
0002a0 b8 77 7f 3d bb bd 1f bc 9d e1 21 3d 02 e7 bf 3d
       0.062370032 -0.009749825 0.039521802 0.09370233
0002b0 c9 5b cb bc 2a 17 01 3e cc b1 ad bd 59 a7 77 3d
       -0.02482404 0.12606493 -0.08481178 0.06046233
0002c0 f2 1f 0d 3d 86 f6 69 3d 74 34 33 bd 1a 71 c4 3c
       0.034454294 0.05711987 -0.043751195 0.023979712
0002d0 f3 e5 11 be bb 01 99 bd 6b 94 b9 3d 0d b5 9e 3b
       -0.14247875 -0.07471033 0.090615116 0.0048433603
0002e0 5b 14 21 3b ba d8 12 be 75 4d e8 bc 37 5a 71 bd
       0.0024578783 -0.14340487 -0.028357247 -0.058923926
0002f0 3b 88 86 3d 0d 07 a9 3d 1f 99 ca bc 9f c5 31 bd
       0.06568953 0.08253298 -0.024731217 -0.043401357
000300 ca ad fc bc ae 5f 16 be eb 88 17 be 43 2a 36 3e
       -0.030844588 -0.14684936 -0.14798324 0.17789559
000310 6b ff 81 3c 29 bf 26 bd 1a 87 48 3d ca ad 28 3d
       0.015868863 -0.04070965 0.048956968 0.041181363
000320 69 6e 83 bc 37 4b 06 be 30 a5 19 3d 6d b3 a4 bd
       -0.016043859 -0.1311463 0.03751105 -0.08042035
000330 e7 7b 4d 3d 9b 31 6c 3d 8d 6e a9 3c 05 00 06 3e
       0.05016699 0.057664495 0.020682598 0.13085945
000340 c2 b8 0b be 3d 8a 8c 3d 04 37 f9 bd 90 7d 06 be
       -0.13644698 0.06862304 -0.121686965 -0.13133836
000350 2f 34 aa bc 14 42 d1 bb 8e 9d 41 3e a3 4e 49 be
       -0.020776836 -0.006386051 0.18907759 -0.19658904
000360 5b d8 8b bd 21 ac 2d be 27 f6 8c 3d 83 fe 0e be
       -0.06828376 -0.16960193 0.06882887 -0.13964276
000370 79 35 06 bb 37 6e 8e 3d a2 9d cc bd 9b 48 cb 3d
       -0.002047865 0.069546156 -0.099910036 0.09925958
000380 f7 26 50 bd 26 3a 4b bc 0d 50 6e 3d e6 41 bf bd
       -0.05081841 -0.012404 0.05818181 -0.09338741
000390 59 a8 07 bc 47 f2 e4 bc ef 3a 13 3e 55 d8 d1 bd
       -0.008279883 -0.027947558 0.1437795 -0.1024634
0003a0 69 0a 0f be 3c 50 3f 3e 8d d0 32 3e aa 6b fc 3d
       -0.13968815 0.1868295 0.17462368 0.12325223
0003b0 ba 6f f3 3d 28 a6 4e 3d 91 58 8a 3c ea cd 25 be
       0.118865445 0.050451428 0.016887935 -0.16191831
0003c0 7e 84 f1 3d 1c 63 49 be 33 ad 50 bd 6f 9f 38 3e
       0.11792849 -0.19666713 -0.050946426 0.18029569
0003d0 50 75 17 bd c6 cd c9 bd 4e 0e eb 3d f6 49 38 be
       -0.036977112 -0.09853701 0.11477338 -0.17996964
0003e0 7c de f5 3d 21 4f 05 be 3e 49 8f 3d 39 88 fc 3d
       0.12005326 -0.13018467 0.06996392 0.1233067
0003f0 81 72 fe 3c 69 b4 23 be 38 e0 23 3e 3c b1 08 be
       0.03106046 -0.1598679 0.16003501 -0.1334886

temporal_attn.temporal_layer_0.V_embedding_weights f4 [128, 128]
000000 bd 18 ce 3b 0b 7f f7 3d 83 bd e2 3d 14 75 4a 3c
       0.00628957 0.120847784 0.11071303 0.012357015
000010 9f da c7 bd 1d 05 09 bd 17 9f fd 3c db 29 18 3e
       -0.097584955 -0.033452142 0.030959649 0.14859717
000020 a1 e9 ce bd 9a 0b ed 3c 93 ed bb bd 46 d9 c3 3d
       -0.10103155 0.028936196 -0.09176173 0.09562926
000030 15 32 c3 bc 65 fd aa 3c 79 8b 7f bb ef 7d 80 bd
       -0.023827592 0.020872781 -0.0038993044 -0.0627402
000040 ef de fc bd e7 76 14 bd 1f 3a f2 bd c5 74 f7 bb
       -0.12347209 -0.036246207 -0.11827492 -0.007551762
000050 4a fb 31 be c5 27 a6 3d 9e 65 a3 3d 7d c1 bd 3d
       -0.17381015 0.08113054 0.07978366 0.092654206
000060 b7 3b 44 bd 0a 62 80 bd d1 3c 7f 3d b2 39 55 bd
       -0.04790851 -0.062686995 0.06231386 -0.052056976
000070 2d c0 49 bc 95 41 0f bd 1b f9 d0 bc 43 be a3 3c
       -0.012313885 -0.034974653 -0.025509408 0.019988185
000080 df 64 9e 3d fc 64 c2 bd 0b 27 fb 3d 01 a8 46 bd
       0.077340834 -0.094919175 0.12263306 -0.048500065
000090 dd 3a e6 3d fd 9c 80 bd e5 e4 d2 3d a3 51 69 bd
       0.11241696 -0.06279943 0.102975644 -0.05696262
0000a0 0b ef 10 3d 94 02 42 bd 47 48 5e bd 04 06 46 bc
       0.03538422 -0.04736574 -0.054268148 -0.012086395
0000b0 13 d5 59 bd d5 f9 bc 3d c5 b8 72 3d f1 16 b5 bd
       -0.05318172 0.09227339 0.05925824 -0.08842266
0000c0 78 b8 5f bb 56 3c 0b be 1d 83 e0 bb 9c 54 df bb
       -0.0034137052 -0.13597235 -0.0068515674 -0.006815506
0000d0 93 3d d2 3d 89 cf c1 bd 6c 51 ad 3d 5e f7 b4 bd
       0.102656506 -0.09463412 0.084627956 -0.08836244
0000e0 81 f1 c7 3d 86 f4 0d be d9 39 05 bc 7b 5b da bd
       0.0976286 -0.1386281 -0.008131468 -0.1066198
0000f0 74 ce 15 3c a9 39 93 3d a2 9a a3 bd 91 98 67 bc
       0.009143461 0.07188732 -0.07988478 -0.014135496
000100 86 cf 05 3e 11 da 14 3d c2 fa 15 be 6e 46 06 be
       0.13067445 0.036340777 -0.14646438 -0.13112804
000110 95 e4 fb 3b 14 0b 16 3d 58 67 d3 3d 32 17 83 3c
       0.007687161 0.03663166 0.10322446 0.016002271
000120 bc a4 bb bd e2 41 44 bd 1f 3b d1 bd 72 ce 03 3e
       -0.0916228 -0.047914393 -0.102163546 0.12871721
000130 7a 05 b9 bc 53 c1 0c 3e bb 01 c9 3d 33 1e ec 3d
       -0.02258562 0.13745622 0.09814783 0.115291975
000140 d0 2e c0 bd 87 cd 39 3d de 75 09 3e 2a 8d 96 3c
       -0.09383929 0.04536202 0.13423869 0.01837786
000150 6f 40 a1 bd 0d 54 c1 bb 31 28 06 3e 5a 8b f2 3d
       -0.07873618 -0.005899912 0.1310127 0.118429855
000160 12 6b e7 3c d1 e7 72 bd 02 82 0b be a3 5c 47 bc
       0.028249297 -0.05930311 -0.13623813 -0.012168082
000170 65 e4 c0 bd 68 28 f4 bd 2a 83 86 3d d1 11 30 bd
       -0.09418563 -0.119217694 0.06567986 -0.04298574
000180 2a 5f e2 bd 17 b3 0c be 02 cf 40 be cf 1e 2e bc
       -0.11053307 -0.13740192 -0.18828967 -0.0106274625
000190 b4 9d c8 3d 2b f6 ce bd b5 34 96 3d a6 42 13 be
       0.097957045 -0.101055466 0.07334272 -0.14380893
0001a0 49 61 ad bc 81 b7 12 be 66 a6 c4 bd 8b 7d bd bc
       -0.021164553 -0.14327814 -0.096020505 -0.023131153
0001b0 2c 2c 89 bc 84 bb 21 3b 39 0b 33 bd 94 40 05 be
       -0.016744696 0.0024678418 -0.043711875 -0.13012916
0001c0 4b 3f dc bd 23 db c2 3d 0f a3 9c bd fb 16 34 be
       -0.1075426 0.09514453 -0.076482885 -0.17586891
0001d0 be e6 9c bd be ca ea 3c 9f 75 23 bd 79 24 7f bd
       -0.07661198 0.028661128 -0.039907094 -0.062290642
0001e0 59 1c cf bd 1a 60 8b bd b6 ac 1b be ea 60 21 be
       -0.10112829 -0.06805439 -0.15202603 -0.15759626
0001f0 73 e3 a1 bd c3 0f 24 bc 07 0c 2d 3d aa 9a 4d ba
       -0.079047106 -0.0100135235 0.0422478 -0.0007843176
000200 70 71 6f bc f1 d9 6e bd 43 b1 3e 3d 19 50 c9 3d
       -0.014614448 -0.058313314 0.04655577 0.098297305
000210 54 08 a0 bc b9 70 09 be 86 e5 25 bc 2f c8 97 bd
       -0.019535221 -0.13421907 -0.010125523 -0.07411229
000220 83 6d 0a be 8e 7d b4 bd 52 4f 89 bc fd 59 6d bd
       -0.13518338 -0.0881301 -0.016761456 -0.057947148
000230 f4 de 95 bd c0 ac c0 3c 29 b5 d7 3d d6 f9 e6 3b
       -0.073179156 0.023519874 0.105326004 0.0070488257
000240 54 9e f7 bc 87 6d d1 3d 54 f0 d5 bc 79 8a bc 3c
       -0.030226864 0.10225969 -0.026115574 0.023015248
000250 a1 07 a8 bd d7 94 09 bd 3b f2 c9 3c a4 40 b3 bd
       -0.0820458 -0.03358921 0.024651637 -0.087525636
000260 49 ee e0 bc 42 18 83 3d 0d 48 eb bd 58 49 fa bd
       -0.027457373 0.06401111 -0.11488352 -0.122210205
000270 00 d4 08 3e aa 1c 27 be 1c 61 01 3e ec de 4e bd
       0.13362122 -0.16319528 0.126347 -0.050505564
000280 9c 41 9a 3c 1b ab 94 3c e9 e9 8a ba 9f e6 8f bc
       0.018830113 0.018147996 -0.0010598275 -0.017566023
000290 c8 6f 15 3e b4 21 80 3d 33 cf bc 3d b8 73 29 bc
       0.14593422 0.06256428 0.092192076 -0.010342531
0002a0 c3 56 e8 3d df d7 d8 3d e2 f6 88 3d 1d 7d 28 bd
       0.113446735 0.10588049 0.06687714 -0.041134942
0002b0 06 d7 7a bd 9b 90 ab 3c de 57 95 3d 32 70 2b bd
       -0.06124022 0.020942977 0.0729215 -0.041855045
0002c0 d1 59 b3 bd e4 9c f3 3d ee a6 07 be ea a1 e1 3c
       -0.087573655 0.11895159 -0.13247272 0.027543027
0002d0 b8 88 50 bd d8 e8 dc 3d 19 0f 9a 3d 04 44 63 3d
       -0.050911635 0.10786599 0.07522411 0.055484787
0002e0 f2 b5 86 bb 69 d6 62 bd 71 a1 9e 3d 25 c8 dd bd
       -0.004111045 -0.05538026 0.07745636 -0.1082919
0002f0 e5 a4 2f 3e e7 23 31 3e 36 06 a0 bc 73 af 08 be
       0.17152746 0.17298852 -0.019534212 -0.13348179
000300 50 3e b1 bd d4 e6 bb bd 7b b9 10 be 73 8d 3f 3c
       -0.08654463 -0.09174886 -0.14133255 0.011691439
000310 af 80 5d 3c 18 71 d3 3d ac 45 5e 3d 98 01 34 3d
       0.01351945 0.10324305 0.054265663 0.043946832
000320 1b 22 cb 3d 9a 21 c5 bd c3 b3 71 bd 98 7b 06 3b
       0.099186145 -0.096255496 -0.059009325 0.0020520445
000330 08 49 b9 bd 41 e9 5d 3d 48 bd bf 3d d9 5c bb bd
       -0.09047133 0.054177526 0.093622744 -0.09148569
000340 19 44 44 bd 7f b9 eb bd 39 bf d6 bd 71 e6 a4 bd
       -0.047916505 -0.1150999 -0.104856916 -0.08051766
000350 fa 67 8d bd 6c 02 ea bb 98 d5 03 3e 22 6a 97 bd
       -0.069045976 -0.007141402 0.12874448 -0.0739329
000360 c1 48 75 bc ea 50 dd bd c3 2b 05 bd b6 74 b3 3d
       -0.014970959 -0.10806449 -0.032512438 0.08762495
000370 76 ed 57 3d 47 41 3c bd 66 15 28 bd 4b 7a 3d bd
       0.052716695 -0.04596069 -0.041036032 -0.046259206
000380 65 e5 d9 bd 20 24 a8 bd 32 71 13 be 3d a0 9a bd
       -0.10639457 -0.08210015 -0.1439865 -0.07550094
000390 92 0c 36 be 75 07 a2 bd 8b e5 20 be ad 73 94 bd
       -0.17778233 -0.079115786 -0.15712564 -0.07248626
0003a0 9a dd 5c bd b5 e6 fa bd c6 47 88 3d d7 91 1b bd
       -0.053922273 -0.12251035 0.06654315 -0.03798088
0003b0 55 0d 13 be 6e 84 99 bd 86 a3 ad bd 27 fb a8 bd
       -0.14360555 -0.07495962 -0.08478455 -0.082510285
0003c0 6c 4b 25 be b4 aa 29 be 0e 9b cd bc 7e d4 06 be
       -0.16142052 -0.16569024 -0.02509835 -0.13166997
0003d0 b0 90 b5 3c 04 3f 3b 3d fa d3 a9 bd 10 46 de 3d
       0.022163719 0.045714393 -0.082923844 0.10853207
0003e0 33 af 7b 3d 29 b1 98 bd e3 e8 bf 3c 7c a1 43 3d
       0.06144638 -0.074556656 0.023426479 0.047761425
0003f0 40 1b 3d 3c 2f 32 46 bd 91 6c ce 3d b9 62 da bd
       0.011542141 -0.048387703 0.10079301 -0.10663361
